…
Deleted dict_data. Memory Usage: 75.1
trial_sample/msk_pred/254 created.
Deleted dict_data. Memory Usage: 70.9
trial_sample/msk_pred/255 created.
Deleted dict_data. Memory Usage: 74.9
Deleted df_enhancer_perf_15. Memory Usage: 48.5
Deleted df_enhancer_perf_16. Memory Usage: 46.7
Model: "model"
__________________________________________________________________________________________________
Layer (type)                    Output Shape         Param #     Connected to                     
==================================================================================================
sequence_inputs (InputLayer)    [(None, 2, 16, 1001) 0                                            
__________________________________________________________________________________________________
lambda (Lambda)                 (None, 2, 16, 1001,  0           sequence_inputs[0][0]            
__________________________________________________________________________________________________
pwms_init_lyr (Conv3D)          (None, 2, 4, 994, 8) 256         lambda[0][0]                     
__________________________________________________________________________________________________
rc_split (Lambda)               [(None, 1, 4, 994, 8 0           pwms_init_lyr[0][0]              
__________________________________________________________________________________________________
rc_neg (Lambda)                 (None, 1, 4, 994, 8) 0           rc_split[0][1]                   
__________________________________________________________________________________________________
rc_concat (Lambda)              (None, 2, 4, 994, 8) 0           rc_split[0][0]                   
                                                                 rc_neg[0][0]                     
__________________________________________________________________________________________________
maxpool_pwms (MaxPooling3D)     (None, 1, 4, 9, 8)   0           rc_concat[0][0]                  
__________________________________________________________________________________________________
permute (Permute)               (None, 4, 9, 8, 1)   0           maxpool_pwms[0][0]               
__________________________________________________________________________________________________
avg_pwms (AveragePooling3D)     (None, 4, 1, 8, 1)   0           permute[0][0]                    
__________________________________________________________________________________________________
lambda_1 (Lambda)               (None, 4, 8)         0           avg_pwms[0][0]                   
__________________________________________________________________________________________________
transpose_2 (Permute)           (None, 8, 4)         0           lambda_1[0][0]                   
__________________________________________________________________________________________________
lambda_2 (Lambda)               (None, 8, 4, 1)      0           transpose_2[0][0]                
__________________________________________________________________________________________________
combine_pwms (Conv2D)           (None, 1, 4, 4)      36          lambda_2[0][0]                   
__________________________________________________________________________________________________
lambda_3 (Lambda)               (None, 4, 4)         0           combine_pwms[0][0]               
__________________________________________________________________________________________________
cell_inputs (InputLayer)        [(None, 4, 4)]       0                                            
__________________________________________________________________________________________________
mult_acc_pwms (Multiply)        (None, 4, 4)         0           lambda_3[0][0]                   
                                                                 cell_inputs[0][0]                
__________________________________________________________________________________________________
average_pooling1d (AveragePooli (None, 1, 4)         0           mult_acc_pwms[0][0]              
__________________________________________________________________________________________________
flatten (Flatten)               (None, 4)            0           average_pooling1d[0][0]          
__________________________________________________________________________________________________
cell_split (Lambda)             [(None, 1), (None, 1 0           flatten[0][0]                    
__________________________________________________________________________________________________
concatenate (Concatenate)       (None, 2)            0           cell_split[0][0]                 
                                                                 cell_split[0][1]                 
__________________________________________________________________________________________________
concatenate_1 (Concatenate)     (None, 2)            0           cell_split[0][0]                 
                                                                 cell_split[0][2]                 
__________________________________________________________________________________________________
prediction_1 (Dense)            (None, 1)            3           concatenate[0][0]                
__________________________________________________________________________________________________
prediction_2 (Dense)            (None, 1)            3           concatenate_1[0][0]              
__________________________________________________________________________________________________
concatenate_2 (Concatenate)     (None, 2)            0           cell_split[0][0]                 
                                                                 cell_split[0][3]                 
__________________________________________________________________________________________________
reshape (Reshape)               (None, 1, 1)         0           prediction_1[0][0]               
__________________________________________________________________________________________________
reshape_1 (Reshape)             (None, 1, 1)         0           prediction_2[0][0]               
__________________________________________________________________________________________________
prediction_3 (Dense)            (None, 1)            3           concatenate_2[0][0]              
__________________________________________________________________________________________________
concat_cell_preds_1 (Lambda)    (None, 2, 1)         0           reshape[0][0]                    
                                                                 reshape_1[0][0]                  
__________________________________________________________________________________________________
reshape_2 (Reshape)             (None, 1, 1)         0           prediction_3[0][0]               
__________________________________________________________________________________________________
concat_cell_preds_2 (Lambda)    (None, 3, 1)         0           concat_cell_preds_1[0][0]        
                                                                 reshape_2[0][0]                  
__________________________________________________________________________________________________
flatten_1 (Flatten)             (None, 3)            0           concat_cell_preds_2[0][0]        
==================================================================================================
Total params: 301
Trainable params: 0
Non-trainable params: 301
__________________________________________________________________________________________________
None
